…
/home/dongki/.local/lib/python3.6/site-packages/h5py/__init__.py:36: FutureWarning: Conversion of the second argument of issubdtype from `float` to `np.floating` is deprecated. In future, it will be treated as `np.float64 == np.dtype(float).type`.
  from ._conv import register_converters as _register_converters
Using TensorFlow backend.
input_data.shape: (8475, 20)
label_data.shape: (8475, 2)
_________________________________________________________________
Layer (type)                 Output Shape              Param #   
=================================================================
input_1 (InputLayer)         (None, 20)                0         
_________________________________________________________________
dense_1 (Dense)              (None, 64)                1344      
_________________________________________________________________
dense_2 (Dense)              (None, 64)                4160      
_________________________________________________________________
dense_3 (Dense)              (None, 2)                 130       
=================================================================
Total params: 5,634
Trainable params: 5,634
Non-trainable params: 0
_________________________________________________________________
_________________________________________________________________
Layer (type)                 Output Shape              Param #   
=================================================================
input_2 (InputLayer)         (None, 20)                0         
_________________________________________________________________
dense_4 (Dense)              (None, 64)                1344      
_________________________________________________________________
dense_5 (Dense)              (None, 64)                4160      
_________________________________________________________________
dense_6 (Dense)              (None, 2)                 130       
=================================================================
Total params: 5,634
Trainable params: 5,634
Non-trainable params: 0
_________________________________________________________________
_________________________________________________________________
Layer (type)                 Output Shape              Param #   
=================================================================
input_3 (InputLayer)         (None, 20)                0         
_________________________________________________________________
dense_7 (Dense)              (None, 64)                1344      
_________________________________________________________________
dense_8 (Dense)              (None, 64)                4160      
_________________________________________________________________
dense_9 (Dense)              (None, 2)                 130       
=================================================================
Total params: 5,634
Trainable params: 5,634
Non-trainable params: 0
_________________________________________________________________
_________________________________________________________________
Layer (type)                 Output Shape              Param #   
=================================================================
input_4 (InputLayer)         (None, 20)                0         
_________________________________________________________________
dense_10 (Dense)             (None, 64)                1344      
_________________________________________________________________
dense_11 (Dense)             (None, 64)                4160      
_________________________________________________________________
dense_12 (Dense)             (None, 2)                 130       
=================================================================
Total params: 5,634
Trainable params: 5,634
Non-trainable params: 0
_________________________________________________________________
_________________________________________________________________
Layer (type)                 Output Shape              Param #   
=================================================================
input_5 (InputLayer)         (None, 20)                0         
_________________________________________________________________
dense_13 (Dense)             (None, 64)                1344      
_________________________________________________________________
dense_14 (Dense)             (None, 64)                4160      
_________________________________________________________________
dense_15 (Dense)             (None, 2)                 130       
=================================================================
Total params: 5,634
Trainable params: 5,634
Non-trainable params: 0
_________________________________________________________________
Training 0th model ...
2018-12-15 00:52:47.923481: I tensorflow/core/platform/cpu_feature_guard.cc:140] Your CPU supports instructions that this TensorFlow binary was not compiled to use: AVX2 FMA
…
